Boston_model.pkl (torch, 8896 bytes, 3 tensors)

weight f4 [100, 13]
00000000: 80fc a53e f0b0 e4bf b873 c1be 0130 cebd
00000010: a634 5540 072e 0e40 6ff4 02bf 5cd5 5140
00000020: 89cf 5c3e f7a4 0c3e c84e b7bf 0478 69bd
00000030: 8ebf 8f3e abb0 abbe bfed cbbe 7942 f0be
00000040: 403c 2bc0 71c1 36c0 a316 b0bf cbc1 bbbe
00000050: 56bf f8bd eb02 aa3e 7325 533e fcfa 8d3f
00000060: fb45 9cbd 67a0 3bbf 5b5f 0ebe ceb3 673e
00000070: 100a 5f3d 5205 4e3e a033 993d 3333 8b3e
00000080: 0ca0 cd3d c069 053e c416 e33d e0e3 a3bd
00000090: 40e3 73bd c899 61be 70ff ed3d bd41 a5bf
000000a0: d9e8 103e 7ae7 513e b91d 78bf 3f35 adbf
000000b0: 6ae1 ce3e 4409 debe 7c1e d33f 08b0 2ebe
000000c0: c2ed 4a3e 02dc 87be f58a a6be ada6 f9bf
000000d0: f4d3 32be 8e2d 88be 0ce5 2fbe 98eb 83be
000000e0: 2afa 59be 0813 e4bd 288f 3b3d 00f0 9539
000000f0: 7cba 8b3d 96bd 55be 2c5c 9a3d 3069 ac3c
00000100: d0fb 343d d366 6d3e 35fd fbbe d3dc 60bf
00000110: 1e92 a4be d5d8 dabf 977f 3bbf 1618 10bf
00000120: 8e91 09bf 9bca 463f a913 01bc 6854 573b
00000130: 9e92 173e e6af 7c3d 92e9 9fbe 4a6d 95be
00000140: ea46 98be ca6f f1bd eb8d d0bd 172c fe3d
00000150: ad93 5bbe 5fe3 54be 2eaa 80bd dc9a 183d
00000160: 06b0 52be b4ae 9ebd 6aa2 fc3c 22cb 0c3e
00000170: baa1 2b3e 8628 643e 5656 8fbd 9e80 043e
00000180: 34ad 2d3e 9a0b dabd c4a7 ef3d c8b0 093d
00000190: 1a94 19be c68c 53be 7013 f03c 26eb 243e
000001a0: f383 3cbe d8aa 5b3e e08e 563e e0a2 51bc
000001b0: 4841 8d3d f06e 68bd 40a2 353d 5875 463e
000001c0: 2f29 8a3e 2e9d 85be 22bf 663e f080 6bbd
000001d0: 2de4 15be ba40 eabd 0038 35bd 4ab2 6dbe
000001e0: b86c 043e 10f0 f0bd 6cf2 bc3d 3805 17be
000001f0: ecd0 2dbe 2054 36bc c0c9 b83b 5c08 56be
00000200: d085 dabd 9fa2 73be 4ac9 87bd 602c 633d
00000210: 4294 203e db25 15be cc7b b63c 54b6 8dbe
00000220: ec1c 40be b2a6 fb3d 9ef9 99be 6d70 0bbd
00000230: 2d82 b93d 8ede 51be 6c7a abbe e8ed 3d3e
00000240: a2b7 49be 0942 6bbe 4a51 293e 1abb 643e
00000250: e064 5b3c 0862 3d3e 3cf9 afbd a4e1 933d
00000260: ad24 54be 76eb b0bd 98bc 133d 8e53 713e
00000270: c6e2 623e d640 81bd 6f2c 54be 2035 b23c
00000280: 50e6 113e 647b e53d db76 8dbe 8651 6e3e
00000290: 3b71 8c3e 624e 8cbe 74b3 8fbd 20d5 413c
000002a0: 965d 7b3e 5103 abbe f49e 91be 0abd 2cbf
000002b0: 3f77 db3d 4860 d2bf 0ae9 b1be 57c1 3f3e
000002c0: 823b 50bf a041 1abf a62b 933d 31d2 b23e
000002d0: 1a85 9fbd 9615 a7be e034 19bc e0e8 13be
000002e0: 0acd 723e 019c 03be b061 023e 823c 0cbe
000002f0: 90b5 953c 124a 4b3e d4b2 ba3d 64c9 b2bd
00000300: 783b 2f3d 8a6b 22be ad93 60be aecf 573e
00000310: fb59 57be fb72 0fbe 3b63 8a3e 424d 623e
00000320: 08c2 21be 80fa 6b3b 749d 993d 700c 43be
00000330: 9e5b abbd 3dba 8dbe a8df 383d 4ab9 47be
00000340: 8eb9 4d3f c255 88be 5738 dbbe 8197 1cc0
00000350: 0a24 c5bf fc23 203b ba09 edbe d90a 5ebf
00000360: 5504 57be a418 b83c 6346 393f 9e4c fe3d
00000370: 7586 86bf 4404 31be 4877 003e 304d 7abe
00000380: 7066 bcbd f136 08be 0069 a03c a8b7 233d
00000390: 6078 b5bc 36de b1bd f71e 5dbe 801c 4fbc
000003a0: c65a 7bbe e1a3 01be f714 a43f 08f6 c33e
000003b0: ea1d 10be 94f3 06bf 94af 9bbf 66f0 b9be
000003c0: db1c ed3e 8eab e63e 63ca 9bbf 4af7 86be
000003d0: 1bd6 b23f 659e 8c3c 823a 283f 13b5 eb3e
000003e0: eff9 81be e7b2 cc3e f231 ba40 48ad 70bf
000003f0: 280b 183f 5d08 f9bd 7e91 47be 6b3d 8d3e
0.32419205 -1.7866497 -0.377836 -0.1006775 3.3313384 2.2215593 -0.51154226 3.2786474
0.21563543 0.13734804 -1.4320917 -0.05699922 0.28075832 -0.33533224 -0.39829823 -0.46925715
-2.6755524 -2.8555567 -1.3756908 -0.3667129 -0.121458694 0.3320535 0.20619754 1.1092219
-0.07630535 -0.7329163 -0.13903563 0.22627184 0.054452956 0.20119217 0.0748055 0.271875
0.10040292 0.13028622 0.110883266 -0.08002448 -0.059542894 -0.22031319 0.116209865 -1.2910687
0.14151324 0.20498458 -0.96920353 -1.3531874 0.40406352 -0.43366444 1.6493678 -0.17059338
0.1981726 -0.2653504 -0.3252789 -1.950399 -0.17463666 -0.26597255 -0.17177218 -0.2576568
-0.21286836 -0.111364424 0.04579082 0.0002859831 0.068226784 -0.20873103 0.07537112 0.021046251
0.04418546 0.23183756 -0.4921662 -0.8783695 -0.3214273 -1.7097422 -0.7324156 -0.5628675
-0.53737724 0.776529 -0.0078782225 0.0032856707 0.14802024 0.061691187 -0.31232888 -0.29184943
-0.29741603 -0.117889 -0.10183319 0.12410753 -0.21443053 -0.2078986 -0.06282459 0.03725706
-0.2057496 -0.07748166 0.030839164 0.13749364 0.16760913 0.22281083 -0.06998889 0.12939689
0.16960603 -0.10646744 0.11701921 0.033615857 -0.14997903 -0.2065917 0.029306144 0.16105327
-0.1840971 0.2145189 0.2095294 -0.01279518 0.06897217 -0.056746423 0.044344187 0.193807
0.26984546 -0.2609648 0.22533849 -0.05749601 -0.14637823 -0.11438127 -0.04424286 -0.23212543
0.12932098 -0.11764538 0.09225926 -0.14748085 -0.16974229 -0.011128455 0.005639285 -0.20901626
-0.10670054 -0.23792504 -0.0663019 0.05546224 0.15681556 -0.14565222 0.022275828 -0.27678168
-0.18761033 0.12287654 -0.30073255 -0.034042764 0.09058032 -0.20495054 -0.33491838 0.18547785
-0.19698957 -0.22974409 0.16534916 0.22336999 0.01339075 0.18494427 -0.085924596 0.07220772
-0.20717116 -0.086386606 0.03606853 0.2356703 0.2215682 -0.063111946 -0.20720075 0.021753848
0.14248013 0.112051755 -0.27629742 0.23273286 0.27430138 -0.2740355 -0.0701665 0.011830598
0.24547419 -0.33400968 -0.28441584 -0.6747595 0.10716104 -1.6435633 -0.34748107 0.18726097
-0.813408 -0.60256386 0.0718606 0.34925988 -0.07789059 -0.32633656 -0.009350985 -0.14444304
0.23711029 -0.1285248 0.12732577 -0.13694957 0.018275052 0.19852474 0.0911614 -0.087298185
0.042781323 -0.15861335 -0.21931334 0.21075317 -0.21030419 -0.14008705 0.27028832 0.22099784
-0.15796673 0.0036007464 0.07500735 -0.19047713 -0.08367084 -0.2768115 0.04513517 -0.19504276
0.8036126 -0.26627928 -0.4281642 -2.446747 -1.5401623 0.002443551 -0.46296483 -0.867353
-0.20997746 0.022472687 0.72373027 0.12416957 -1.0509783 -0.17286783 0.12545502 -0.24443507
-0.09199226 -0.13302208 0.019581318 0.03997007 -0.022152126 -0.086849615 -0.21593843 -0.012641072
-0.24546346 -0.12660171 1.2818898 0.38273644 -0.14073911 -0.5271542 -1.2162957 -0.36316222
0.46311077 0.4505276 -1.2171139 -0.26360542 1.397159 0.017165372 0.65714276 0.46036586
-0.25385997 0.39980242 5.818597 -0.94014406 0.59392023 -0.12159798 -0.19489095 0.2758592

bias f4 [100]
00000000: 0ae7 0fc0 e0a4 d23f 1461 163e 4e41 82be
00000010: a058 d0bc 2d22 543f 7274 983c 2890 7a3d
00000020: ccad 4abe ecc1 e63d 5312 26be ea61 65be
00000030: ac49 09bd 7082 a43e e018 1e3c c0ae 4fbe
00000040: 9d80 663f b0bc c63c bb67 e5be 04d8 df3e
00000050: 9a66 683e f8b7 0e3e cc24 3e3e cf4f 893f
00000060: dcf5 b9bd 9e96 613e 58b2 5dbf d6e3 27be
00000070: c27a d6bd d176 7d3f 8095 42be 2c6a 36bf
00000080: da59 d03d 30ef 76bd 06ce 4b3e 565f 183f
00000090: 201b 36bd c608 49bf 636d ec3f e955 72bf
000000a0: 5c59 efbd 2652 a33d 963d 83be 80ab e73b
000000b0: 0984 113f d238 98be 3ad1 51be 1420 263c
000000c0: 245e 693d c8b0 3dbe 10ff 0dbe fe91 313e
000000d0: 321b b8bd 3b52 95bc 0490 30bd 933a 97be
000000e0: 1cb2 2abf 3458 e03d 363f 84be 6615 043f
000000f0: 70e2 a93b 70ad 0a3f d8c7 543e 99b4 a23e
00000100: 3a82 d63b b442 42be ce87 8a3f 2e22 7e3e
00000110: 4032 be3d e9dc 84be 466c 873e 10bd 4c3f
00000120: 262f 3b3f be1c 673e 0cbb 173f d9da 943e
00000130: 4b9f 4bbf d290 683f 6e45 163e 89d0 d23f
00000140: e0f5 30bd 7617 24be 66a1 3cbf 822b b7bd
00000150: 50a1 54bf e8b4 2a3d d352 853f 024e 4ebf
00000160: 9639 713e 2015 543e d09b 6abd 4d34 0cbe
00000170: 7f33 07bf b909 6c3f 2f6a 2d3e 2478 1a3e
00000180: 4354 0d3e ef71 aa3f 369b 76be 2ada 5cbf
-2.2484765 1.6456566 0.1468547 -0.2544045 -0.025432885 0.8286465 0.018610213 0.061172634
-0.19792861 0.112674564 -0.16217928 -0.22400633 -0.033517525 0.32130766 0.009649485 -0.20281506
0.9004 0.024259895 -0.44805703 0.43719494 0.2269539 0.13937366 0.18568724 1.0727481
-0.09080097 0.22030112 -0.86600256 -0.16395506 -0.10472633 0.99009424 -0.19002342 -0.71255755
0.10173388 -0.0602867 0.1990281 0.5952047 -0.044459462 -0.7852901 1.8470882 -0.9466234
-0.11686966 0.07974653 -0.25632924 0.007070005 0.56842095 -0.2973085 -0.2048997 0.010139484
0.056974545 -0.18524468 -0.1386683 0.17340848 -0.08989562 -0.018227687 -0.043106094 -0.29536876
-0.66678023 0.109543234 -0.25829476 0.5159515 0.005184464 0.54170895 0.2077936 0.3177841
0.006546286 -0.18970758 1.0822694 0.24817726 0.09286928 -0.2594979 0.26449794 0.79975986
0.7311882 0.22569558 0.59269786 0.29073218 -0.79539937 0.9084598 0.14674923 1.646989
-0.043203235 -0.16024575 -0.73683774 -0.08943845 -0.83058643 0.041676432 1.0415901 -0.8058778
0.23557124 0.20711184 -0.0572775 -0.13691826 -0.5281295 0.92202336 0.16935037 0.15084893
0.13801675 1.331602 -0.24082646 -0.8627039

weight f4 [1, 100]
00000000: c52a bbbe 0ef9 8e3d 0397 62bd 335c d13e
00000010: 676a 863d aed1 9b3d b376 0dbc eeb5 623d
00000020: a964 8d3d 5abe 9bbd 2038 7fbd 146b 9e3c
00000030: ea72 70bd 54f4 2d3c 02ae 1f3d a7d7 5abd
00000040: 9771 173e 1b8e 95bd a7c2 a2be e143 043e
00000050: 0392 a33d e86a 7bbc 90d6 53bd 65db f43c
00000060: 5520 cdbd 09cd a63d 7a9e 3dbc a04c 893c
00000070: 9a0e 5b3d 65e2 803e 823b 453d f700 15bf
00000080: 1b28 5fbc 8f3b c73d f17b 653b 8078 893e
00000090: 12cd 6a3d 50c5 32bb 3d09 313f c676 e2bc
000000a0: 028e bdbd b283 623c ee8b 4d3d 4b64 cbbd
000000b0: d6b6 3f3d e86b eebc be4e ce3c e5c8 d03e
000000c0: d35b 03bd f14c 533d 4f6b 923d 0512 c8bd
000000d0: 7685 f9be cc6a 98bc ce34 003d 4e18 d8bc
000000e0: 1ec8 5ebe 30e8 363c c0c1 953c fb39 98bb
000000f0: c442 dd3c da5c e23e c02c 2c3c 73b8 ff3e
00000100: 1df3 6cbd bfa2 88bf 2858 f83c 3abf 7b3d
00000110: 5acb 7bbd 736b b8be ef22 263f 88b4 863c
00000120: 2a66 d1bb c2c8 3b3d 5fc8 f13d 8865 8bbe
00000130: 512e 06be 2b56 d13b 6831 b73c 8b7b 6c3e
00000140: d3d4 0abe 004e bd3b d86c 4dbd 0c53 02bd
00000150: ebbb bcbd 9462 bf3c 5f3f 8c3e 3cd4 51bd
00000160: 50e4 72bc 1734 793d d15f 8a3d d096 8ebb
00000170: 3ce7 62be 535c 5a3e c4fd 1abc 8088 9aba
00000180: 6ecc 04bc 4951 503f 144d 883c 80df 0bbd
-0.36556068 0.06981097 -0.055319797 0.40890655 0.065632634 0.076083526 -0.008634257 0.055349283
0.06903965 -0.07604666 -0.062309384 0.019338168 -0.05870334 0.010617334 0.038984306 -0.05342832
0.14789425 -0.07302495 -0.31789133 0.12916519 0.07986834 -0.015345313 -0.051718295 0.029889772
-0.100159325 0.08144576 -0.011573428 0.01676017 0.053480722 0.25172725 0.048152454 -0.582046
-0.013620402 0.09728157 0.0035016502 0.26849747 0.057324477 -0.0027278252 0.6915472 -0.027644526
-0.092556015 0.013825344 0.050182275 -0.09931239 0.046805225 -0.029104188 0.025184032 0.4077827
-0.032069992 0.05158705 0.07149374 -0.09769062 -0.48734635 -0.018605612 0.03130036 -0.026378777
-0.21756026 0.011163756 0.018280864 -0.0046455837 0.027009375 0.44211465 0.010508716 0.4994541
-0.05784904 -1.0674666 0.030315474 0.061461665 -0.061473228 -0.36019477 0.64897054 0.016443506
-0.0063903527 0.045845754 0.11805796 -0.272259 -0.13103606 0.006388446 0.022362426 0.23094003
-0.13557748 0.0057771206 -0.05015263 -0.03181748 -0.0921553 0.023362435 0.27392098 -0.051227793
-0.014824942 0.060840692 0.06756557 -0.0043514743 -0.22158521 0.21324281 -0.0094599165 -0.0011789948
-0.00810538 0.8137403 0.016638316 -0.034148693
